trained_model/model.pth (torch, 18168 bytes, 19 tensors)

embedding.weight f4 [27, 8]
1.9161423 2.2025497 2.5745444 -2.0836153 0.948897 -2.361851 1.297674 -0.89621633
-0.6762231 0.01925461 0.020248896 -0.67503333 -1.2422482 -0.18652642 -0.38618907 1.3294222
0.68705344 0.79947954 -0.08452153 -0.017737828 -0.8038591 -0.22408913 0.5426943 0.13036685
0.17688756 0.16214775 0.58636874 0.49756247 2.3509662 -0.016415365 -0.27745298 1.4543084
0.43095365 -0.0808678 -0.86372995 2.0973032 -0.74305224 -0.09813022 0.47853175 0.0870586
0.28060052 0.58091456 -0.5039526 -0.542906 -0.15191019 -0.11476793 -0.9155393 -0.8576169
-0.041068815 -0.3734961 -0.18338087 -0.26149687 0.7949759 0.0394888 0.8148256 -0.20049493
-1.1656443 0.5980855 0.3562852 -0.46890098 0.6400629 -0.40543622 0.2080979 -1.2922367
0.55597544 -0.3018173 0.47617006 0.0099589005 0.00022671511 0.037381645 -0.71544313 -0.41209513
-0.32550615 -0.09263839 -0.7708137 1.0224149 -1.2703929 -0.34018686 -0.2603324 1.0298662
-0.5887909 -0.9551988 -1.0166757 -0.080017224 0.5929688 -0.57280356 0.16772869 -0.16245694
0.59936166 -0.4204602 0.3694824 0.113850005 -0.23501736 -0.023727488 -0.55920744 -0.54589176
-1.397234 2.0977993 -1.0180676 -1.5493549 2.6548693 0.732061 0.40854865 0.34899858
-0.4056393 -0.78433675 1.155249 0.045827452 0.7273609 -0.004510263 0.47802663 -0.5383
-0.50654536 -0.28376186 -0.151835 0.35704902 -0.6594916 0.5388563 0.60253274 0.87248415
0.6263817 0.2966482 0.2236504 0.23129292 -0.29214346 0.34830624 -0.44017205 -0.6239315
0.053560067 -0.5267877 -0.5382669 0.4562884 -0.41535714 1.0176746 0.454237 0.33842266
-0.09995519 -0.8081992 0.27875936 -0.16762164 0.27783504 0.91446084 0.09958571 -0.30041113
-0.8674368 -0.094831966 0.44702435 -0.5811551 -0.9772088 -0.37926143 -0.33762202 0.7512057
-0.006439362 0.0049820207 -0.54910004 0.3272714 -0.8148174 0.8737363 0.71425307 0.010070621
-1.0145301 -0.28528184 0.6074361 0.7292195 -0.34465334 0.540221 1.0508944 0.68032247
-1.0001253 -0.31891173 0.22503741 -0.45060402 -0.9225005 -0.26397693 -0.5105302 0.7591672
-1.8325613 -1.3610384 -1.355247 1.7613816 0.34047055 0.6043509 3.31637 -1.0835143
-3.5501637 -2.3515122 -2.6648865 -1.1951287 1.2657287 -1.5271068 -0.40552774 0.38865805
-2.208645 -4.4309874 0.23887004 1.9447042 0.9613401 1.8961174 3.3692431 0.7848788
1.1407534 1.9497437 -0.80140436 3.176601 0.9091952 3.713364 1.608076 2.1108637
-2.987727 -2.9189832 -4.0369883 -2.466411 1.0300353 -1.3119222 -0.8928785 -0.26887703
00000000: 2744 f53f 93f6 0c40 56c5 2440 f459 05c0
00000010: eaea 723f 9128 17c0 2e1a a63f 6f6e 65bf
00000020: f51c 2dbf d8bb 9d3c 03e1 a53c fcce 2cbf
00000030: fd01 9fbf c800 3fbe 93ba c5be 822a aa3f
00000040: bce2 2f3f b1aa 4c3f a019 adbd ec4e 91bc
00000050: b6c9 4dbf 9f77 65be 03ee 0a3f e37e 053e
00000060: 0322 353e 0f0a 263e 431c 163f 82c0 fe3e
00000070: 3b76 1640 8479 86bc 510e 8ebe c726 ba3f
00000080: f5a5 dc3e 049e a5bd 681d 5dbf 373a 0640
00000090: ac38 3ebf 7ff8 c8bd 1d02 f53e c74b b23d
000000a0: dfaa 8f3e d1b6 143f 0a03 01bf e3fb 0abf
000000b0: 588e 1bbe 730b ebbd c960 6abf c88c 5bbf
000000c0: c637 28bd e13a bfbe 32c8 3bbe ebe2 85be
000000d0: 8a83 4b3f 02bf 213d 6998 503f 8b4e 4dbe
000000e0: d533 95bf 221c 193f 046b b63e ca13 f0be
000000f0: 2adb 233f 5695 cfbe 9e17 553e 0368 a5bf
00000100: 6854 0e3f cc87 9abe 90cc f33e a82a 233c
00000110: 60ba 6d39 7f1d 193d 4827 37bf 22fe d2be
00000120: bea8 a6be 32b9 bdbd 0c54 45bf 7ede 823f
00000130: 3c9c a2bf f92c aebe 4a4a 85be a8d2 833f
00000140: 00bb 16bf e987 74bf 6e22 82bf 12e0 a3bd
00000150: cecc 173f 41a3 12bf 12c1 2b3e 1d5b 26be
00000160: c46f 193f 8f46 d7be cc2c bd3e 312a e93d
00000170: 64a8 70be 2660 c2bc 3828 0fbf 90bf 0bbf
00000180: 90d8 b2bf 5842 0640 0a50 82bf 4351 c6bf
00000190: 61e9 2940 5a68 3b3f 4a2d d13e f1af b23e
000001a0: f4af cfbe 4bca 48bf 33df 933f 91b5 3b3d
000001b0: 5334 3a3f d4ca 93bb e8bf f43e 07ce 09bf
000001c0: f5ac 01bf 3c49 91be a27a 1bbe 21cf b63e
000001d0: 71d4 28bf 7df2 093f 963f 1a3f 1f5b 5f3f
000001e0: 8d5a 203f 46e2 973e 9c04 653e 0dd8 6c3e
000001f0: d493 95be 3255 b23e 3b5e e1be fab9 1fbf
00000200: cd61 5b3d 8fdb 06bf dccb 09bf a29e e93e
00000210: b1a9 d4be 2943 823f c191 e83e bc45 ad3e
00000220: 4fb5 ccbd 25e6 4ebf 8cb9 8e3e 02a5 2bbe
00000230: 6540 8e3e 1b1a 6a3f 98f3 cb3d 7dcf 99be
00000240: 5710 5ebf 4337 c2bd 60e0 e43e 95c6 14bf
00000250: 5b2a 7abf 8e2e c2be cbdc acbe 044f 403f
00000260: 4901 d3bb 3840 a33b d291 0cbf 1e90 a73e
00000270: e097 50bf 2fad 5f3f 4ad9 363f 3fff 243c
00000280: 1fdc 81bf 7610 92be ef80 1b3f 21ae 3a3f
00000290: 6776 b0be ec4b 0a3f b583 863f 9d29 2e3f
000002a0: 1b04 80bf 6648 a3be 3570 663e 92b5 e6be
000002b0: fe28 6cbf fc27 87be 1bb2 02bf c858 423f
000002c0: 5e91 eabf 8236 aebf bc78 adbf f474 e13f
000002d0: 2852 ae3e beb6 1a3f 683f 5440 99b0 8abf
000002e0: e235 63c0 2d7f 16c0 808d 2ac0 faf9 98bf
000002f0: 6603 a23f 3c78 c3bf 55a1 cfbe 30fe c63e
00000300: 715a 0dc0 a6ca 8dc0 599a 743e 11ec f83f
00000310: 631a 763f fab3 f23f aea1 5740 d1ed 483f
00000320: 3504 923f 3491 f93f d628 4dbf 6e4d 4b40
00000330: 04c1 683f c1a7 6d40 6fd5 cd3f 6418 0740
00000340: eb36 3fc0 9fd0 3ac0 022f 81c0 aed9 1dc0
00000350: 32d8 833f 11ed a7bf af93 64bf 40aa 89be

rnn.weight_ih_l0 f4 [32, 8]
-0.10136268 0.15811327 -0.18332878 -0.054120596 0.22605702 0.048597287 -0.02093788 -0.119207956
-1.4161327 0.5916818 -0.18104123 -0.016480383 0.0063968096 0.9679407 -2.7068758 0.5522795
0.084249 0.4236603 1.1240036 -1.2262028 -0.0983894 -0.66156083 -0.09218852 -1.6310871
0.36164612 -0.42930797 0.019592298 -0.2520027 0.36263195 0.40761164 0.026845278 -0.31943062
0.40470764 -0.091238365 0.51618195 -0.6418693 0.27699524 0.30466837 -0.45957354 -0.17516136
0.40021777 0.7008839 -2.454286 0.08338524 0.35465693 0.55885667 1.4134463 2.3065813
0.49078488 1.5654179 -0.78814703 0.27146277 -0.09641011 0.13629861 1.5414791 0.10953211
-1.050866 0.652088 -1.4665928 -0.56137824 -2.7918384 -1.2136629 -0.6960045 -1.2818817
0.33900288 0.34487665 0.18125705 -0.30526736 1.1713247 -1.0685278 -0.29529902 -1.3203524
-0.38487664 -0.14882378 0.036752146 0.6117573 -1.2611513 -0.6589996 0.19759272 0.063729845
0.20273875 0.32205123 -0.12161825 -0.64017045 -1.1829981 1.4763877 -0.46784955 -0.33579835
-0.46862206 -0.37652647 -0.6690271 0.60555375 -0.5790372 0.5245249 0.31525484 0.8958808
0.7447749 -0.8457187 0.9473415 -0.50898117 0.00091955205 -0.18454434 -0.7856177 0.89230376
-0.51974255 0.6898993 -0.5785253 0.18820086 1.5226859 0.8237899 0.44621027 0.36351433
0.7057881 0.11934487 -0.21562152 -0.34096545 -0.5711682 -0.33371955 0.026350811 -0.8448338
-0.4415805 -0.41243294 -0.42071486 1.1322099 -1.104147 -0.7262977 1.6639644 1.7861624
-0.20331126 0.29618233 0.08074228 -0.051127184 0.41913292 -0.024832737 0.16514327 -0.18039908
-0.04893312 0.16093847 1.1474725 0.032544836 -1.172457 -0.8149717 -0.99022794 -1.3526239
1.8425595 1.0376691 2.302549 -1.7680532 -0.37480846 -1.859644 0.7602442 0.478257
-0.14149888 0.10451073 -0.1412985 0.2529898 0.18835771 -0.09564125 -0.060890846 -0.08760932
0.15093778 -0.36031428 -0.6639364 0.84801936 0.9052803 0.10266053 -0.5838205 -0.9439591
-0.9237658 1.0535849 -0.28550526 -0.92973703 0.34546655 -0.06417391 -0.094882555 -0.8414475
1.1894541 0.8353983 -0.08963798 -1.5918418 0.5052623 -0.7995164 -0.05056375 -2.0148435
-0.3601725 0.20971702 -1.1568794 -0.0786838 0.0075430097 0.48879236 0.4897843 0.28772613
-0.33727056 -0.080926634 0.033762097 0.31308636 0.21054177 0.58044696 -0.5232637 -0.6078364
0.29397732 1.0176793 0.17355293 0.13419296 1.0640659 -0.32823724 0.019432902 0.7642401
1.1314595 0.71703243 0.803319 -0.23407194 1.8990185 -0.41939858 -1.147088 -1.095154
0.2952837 0.12334664 0.09831828 0.087323114 -0.28238952 -0.28009057 -0.012392503 0.038275827
0.24598892 -0.022094326 -0.052732866 -0.3932113 1.2439877 0.47795665 2.6889887 -0.28730494
0.44940683 -0.00028849952 0.13145214 -0.13047686 0.032121256 0.4631566 -0.55520093 -0.2548699
0.4127734 1.4161198 0.23123184 0.5720615 1.0013825 -0.77889615 -0.5687444 0.64437026
-0.20909648 0.63682455 -0.4950889 0.42397314 -1.6772909 0.63874173 -0.3455684 1.6704237
00000000: 3d97 cfbd 72e8 213e 8aba 3bbe 8fad 5dbd
00000010: 7e7b 673e f30d 473d eb85 abbc 4d23 f4bd
00000020: d643 b5bf 7578 173f df62 39be de01 87bc
00000030: 549c d13b f6ca 773f 743d 2dc0 3062 0d3f
00000040: bd8a ac3d 01ea d83e 5adf 8f3f 37f4 9cbf
00000050: 6280 c9bd 0d5c 29bf 56cd bcbd 76c7 d0bf
00000060: ae29 b93e 41ce dbbe 0780 a03c 7f06 81be
00000070: e5aa b93e 79b2 d03e a1ea db3c 698c a3be
00000080: d735 cf3e 2edb babd 8024 043f 8c51 24bf
00000090: 52d2 8d3e 7efd 9b3e 394d ebbe 805d 33be
000000a0: 58e9 cc3e 216d 333f 0613 1dc0 e1c5 aa3d
000000b0: 9895 b53e 3b11 0f3f cfeb b43f 079f 1340
000000c0: 2848 fb3e 9d5f c83f 01c4 49bf 2bfd 8a3e
000000d0: aa72 c5bd dd91 0b3e 304f c53f 5f52 e03d
000000e0: c782 86bf 3def 263f 50b9 bbbf 7cb6 0fbf
000000f0: 7bad 32c0 4e59 9bbf 5a2d 32bf b314 a4bf
00000100: c991 ad3e ac93 b03e 739b 393e 014c 9cbe
00000110: f8ed 953f 85c5 88bf 6f31 97be 4f01 a9bf
00000120: 8d0e c5be 4365 18be 6b89 163d 209c 1c3f
00000130: 686d a1bf 33b4 28bf bf55 4a3e cb84 823d
00000140: bf9a 4f3e e6e3 a43e fd12 f9bd 36e2 23bf
00000150: 7b6c 97bf 46fa bc3f fa89 efbe c3ed abbe
00000160: 3bef efbe 14c8 c0be 5c45 2bbf 9205 1b3f
00000170: c83b 14bf 4447 063f 1569 a13e 7258 653f
00000180: 91a9 3e3f 0581 58bf f984 723f 974c 02bf
00000190: 180e 713a 31f9 3cbe 3e1e 49bf 056e 643f
000001a0: d90d 05bf 3e9d 303f 3c1a 14bf bab7 403e
000001b0: 5fe7 c23f e5e3 523f ac75 e43e 8d1e ba3e
000001c0: 87ae 343f 156b f43d e3cb 5cbe 0693 aebe
000001d0: 1438 12bf 4add aabe a8dd d73c 0747 58bf
000001e0: d716 e2be 692a d3be f067 d7be 41ec 903f
000001f0: b054 8dbf a5ee 39bf c9fc d43f f8a0 e43f
00000200: d430 50be 36a5 973e 355c a53d bd6a 51bd
00000210: 9798 d63e 066e cbbc 511b 293e 89ba 38be
00000220: 186e 48bd 0ecd 243e 61e0 923f bc4d 053d
00000230: 1213 96bf fca1 50bf 947f 7dbf c822 adbf
00000240: fdd8 eb3f 57d2 843f f65c 1340 914f e2bf
00000250: e5e6 bfbe d108 eebf 5d9f 423f 1ade f43e
00000260: 15e5 10be b909 d63d 8eb0 10be e187 813e
00000270: d8e0 403e 8fdf c3bd ae68 79bd 846c b3bd
00000280: 6f8f 1a3e 1d7b b8be bcf7 29bf cc17 593f
00000290: 73c0 673f af3f d23d 4375 15bf 4ea7 71bf
000002a0: ea7b 6cbf dfdb 863f bf2d 92be 3f03 6ebf
000002b0: fee0 b03e 9c6d 83bd c951 c2bd 1a69 57bf
000002c0: 0840 983f aadc 553f 1e94 b7bd 79c1 cbbf
000002d0: df58 013f 1bad 4cbf ef1b 4fbd 32f3 00c0
000002e0: 8868 b8be 0fc0 563e a014 94bf f924 a1bd
000002f0: 5a2b f73b fe42 fa3e 02c5 fa3e d750 933e
00000300: baae acbe ddbc a5bd 204a 0a3d db4c a03e
00000310: 4398 573e 2c98 143f 9cf4 05bf 2b9b 1bbf
00000320: 3284 963e 5143 823f dcb7 313e e169 093e
00000330: 5033 883f b60e a8be c031 9f3c 3da5 433f
00000340: aad3 903f 708f 373f 50a6 4d3f 8eb0 6fbe
00000350: 0a13 f33f 69bb d6be c8d3 92bf 022e 8cbf
00000360: 6d2f 973e 2a9d fc3d 185b c93d 76d6 b23d
00000370: 5c95 90be 0868 8fbe ed09 4bbc 1dc7 1c3d
00000380: 85e4 7b3e 29ff b4bc 6bfe 57bd fe52 c9be
00000390: fd3a 9f3f bcb6 f43e 6418 2c40 a219 93be
000003a0: a718 e63e c041 97b9 649b 063e ba9b 05be
000003b0: 9491 033d dd22 ed3e a621 0ebf 4f7e 82be
000003c0: 0957 d33e 6a43 b53f 0ac8 6c3e 9f72 123f
000003d0: 4d2d 803f bd65 47bf 3c99 11bf 73f5 243f
000003e0: 631d 56be ef06 233f 4b7c fdbe 0213 d93e
000003f0: 78b1 d6bf 9484 233f 57ee b0be 72d0 d53f

rnn.weight_hh_l0 f4 [32, 8]
-0.4802049 0.030737605 -1.5305547 0.16600044 0.13127336 -2.5103135 0.0034832926 -2.2775595
0.046534922 -0.14835162 0.5458515 0.99286664 -0.47028616 -0.13314332 -1.0217036 1.1257175
-2.4264927 0.6113339 -0.45391873 -0.62514114 1.1463931 -1.0422662 1.2428573 -1.2073171
-0.2865758 0.5224839 -1.3536797 -2.5818222 -2.5517094 -0.58226895 -1.2281747 0.8218635
1.4547781 0.3941279 -0.95821154 -0.9583218 1.168033 -2.087421 0.1804214 -0.30728066
5.252326 -2.4803298 -1.3828096 1.1316371 -2.5765376 0.6892495 -1.192146 0.18285742
-2.9424608 1.5243098 -2.2130659 2.0406992 0.88505006 -0.7768606 0.18239361 -1.5492823
0.44709173 -1.377125 -2.5089695 2.2210639 -0.9805291 -1.7201469 0.036944233 -0.5793962
-0.88860327 -0.9699999 -2.2973561 -0.73117846 0.33382028 -1.6790205 -0.076048695 -2.4705696
-1.71575 -0.5107394 -1.3673098 0.73416674 0.02580731 -1.2544719 -0.89244026 0.7226827
0.025476657 2.658838 0.9832282 -0.3292837 -0.12337614 1.5113037 0.5096934 0.57130104
2.4871094 -0.101066485 0.52797335 -0.13820027 -0.5238365 0.58257335 -0.18807603 -0.4231918
-0.2880362 1.6913186 0.11561814 -2.2866046 -0.45545042 0.85018116 -0.3822327 1.0097737
0.049417995 -0.45065475 -2.1087966 0.5595099 -0.99291813 -1.5095508 -0.40703714 1.3190418
0.46540692 2.244152 -1.0828831 0.7909802 2.4767919 -0.6569412 -1.0818671 -0.21276635
-1.7601967 -1.2086463 -1.453409 0.7407889 1.0694656 -1.5547162 1.6684692 1.0737078
0.3874297 -1.4164381 -4.1971593 -0.09803965 0.0011132723 -8.016657 0.2416223 -2.1556282
0.25387397 -1.1782248 0.08808236 -1.4144514 -0.425851 -0.50177324 2.0627112 0.5406128
-0.89725876 0.27219227 0.29845458 -0.3281206 0.12625381 2.7952235 -0.75773054 -1.5716506
3.592914 0.22594753 0.41336864 -0.14095879 -1.236074 0.8640486 -0.2696726 -0.29069155
-0.036885496 -0.4054617 4.290109 0.44583648 0.038629785 1.4342825 -0.82220334 2.1317546
-3.0490615 1.8892134 0.84683245 1.1166295 1.4363189 0.3994458 -0.47766432 -0.40608644
-1.2727932 -0.69527483 0.15458332 -0.37270874 1.0267601 -0.4235209 0.33262622 0.5137468
0.5944507 0.36451715 -1.0823805 0.9433974 0.38122243 -1.8438436 0.08515614 1.4513077
0.64959997 1.9062684 -2.836177 3.6134417 -1.3961328 -1.2458812 -0.86362624 0.8771557
-0.8252858 -0.11466622 -2.1113656 -0.23924142 -1.2485932 -1.1804181 0.61277235 -0.30032662
-0.7264481 -0.8062515 -0.32000235 1.9804044 -0.24698646 1.6758034 0.48275432 -0.5711994
-1.459676 -0.98220044 -1.4275998 -0.768645 -0.36033228 0.5510501 -1.2116996 -0.60603553
0.6337446 1.4516597 0.110419765 -1.5182478 0.47833028 -0.8639207 0.09459584 1.7572953
-3.5409884 -0.9807466 -0.577927 2.1047323 -0.36259666 0.27900594 0.4387027 0.11497158
-3.2731173 -0.19337142 -0.43495852 1.057188 -1.1671897 -1.4457717 0.050970234 -0.11793105
-0.6191594 1.5196594 -1.1947514 0.16541551 0.33418167 -0.63164884 0.48559624 0.3295201
00000000: 6bdd f5be 6ecd fb3c 37e9 c3bf 05fc 293e
00000010: 866c 063e faa8 20c0 f447 643b 89c3 11c0
00000020: 679b 3e3d 7de9 17be edbc 0b3f 822c 7e3f
00000030: 59c9 f0be b956 08be 2fc7 82bf 8317 903f
00000040: a84b 1bc0 6180 1c3f 0968 e8be 4009 20bf
00000050: 02bd 923f fb68 85bf f315 9f3f 5e89 9abf
00000060: 10ba 92be 81c1 053f 6045 adbf 933c 25c0
00000070: 354f 23c0 940f 15bf d434 9dbf a565 523f
00000080: 2b36 ba3f 22cb c93e 5a4d 75bf 9454 75bf
00000090: 1b82 953f 4e98 05c0 63c0 383e e453 9dbe
000000a0: 0e13 a840 b9bd 1ec0 e8ff b0bf 7cd9 903f
000000b0: fee5 24c0 a872 303f 3d98 98bf fa3e 3b3e
000000c0: 4751 3cc0 951c c33f dfa2 0dc0 d19a 0240
000000d0: a492 623f 56e0 46bf 64c5 3a3e e24e c6bf
000000e0: 35e9 e43e a245 b0bf f592 20c0 e925 0e40
000000f0: f503 7bbf c62d dcbf d652 173d 4f53 14bf
00000100: 817b 63bf ea51 78bf e207 13c0 832e 3bbf
00000110: 7eea aa3e 25ea d6bf 6bbf 9bbd d01d 1ec0
00000120: b29d dbbf d1bf 02bf 0204 afbf 5af2 3b3f
00000130: da69 d33c 8992 a0bf f776 64bf bc01 393f
00000140: 6cb4 d03c 672a 2a40 d8b4 7b3f e097 a8be
00000150: a1ac fcbd 6672 c13f 447b 023f c940 123f
00000160: cd2c 1f40 f2fb cebd 4329 073f 5f84 0dbe
00000170: 261a 06bf 8723 153f 0197 40be 98ac d8be
00000180: 7b79 93be 217d d83f 34c9 ec3d bb57 12c0
00000190: cc30 e9be 79a5 593f 01b4 c3be 4440 813f
000001a0: 866a 4a3d 38bc e6be 86f6 06c0 0a3c 0f3f
000001b0: e22f 7ebf f638 c1bf 2c67 d0be 5dd6 a83f
000001c0: d149 ee3e 30a0 0f40 ea9b 8abf ae7d 4a3f
000001d0: c283 1e40 4c2d 28bf 9f7a 8abf 6cdf 59be
000001e0: 204e e1bf ecb4 9abf 4e09 babf 57a4 3d3f
000001f0: 40e4 883f f100 c7bf 6690 d53f 426f 893f
00000200: 305d c63e d84d b5bf 214f 86c0 03c9 c8bd
00000210: 38eb 913a 3a44 00c1 d66b 773e d0f5 09c0
00000220: c5fb 813e 12d0 96bf 8664 b43d be0c b5bf
00000230: 2409 dabe 3674 00bf 7603 0440 9a65 0a3f
00000240: c0b2 65bf c95c 8b3e 0acf 983e 6cff a7be
00000250: ae48 013e f1e4 3240 a1fa 41bf d92b c9bf
00000260: 4ef2 6540 ca5e 673e 0ea5 d33e 8057 10be
00000270: ac37 9ebf 4a32 5d3f 8712 8abe 86d5 94be
00000280: 3f15 17bd ad98 cfbe 9348 8940 ae44 e43e
00000290: 443a 1e3d 9296 b73f eb7b 52bf ab6e 0840
000002a0: d323 43c0 bfd1 f13f 03ca 583f b7ed 8e3f
000002b0: 4cd9 b73f 2984 cc3e 6b90 f4be 90ea cfbe
000002c0: e3ea a2bf 88fd 31bf 174b 1e3e aed3 bebe
000002d0: e06c 833f bbd7 d8be fc4d aa3e e984 033f
000002e0: ec2d 183f fea1 ba3e 728b 8abf 7e82 713f
000002f0: 962f c33e 1103 ecbf 5866 ae3d 73c4 b93f
00000300: 2f4c 263f 9a00 f43f ed83 35c0 a142 6740
00000310: 7bb4 b2bf 0979 9fbf 9c16 5dbf 478d 603f
00000320: ee45 53bf 20d6 eabd 9d20 07c0 b4fb 74be
00000330: e7d1 9fbf f117 97bf a6de 1c3f 69c4 99be
00000340: 81f8 39bf 8066 4ebf 59d7 a3be e47d fd3f
00000350: 05ea 7cbe ba80 d63f 932b f73e 203a 12bf
00000360: aad6 babf 7d71 7bbf 97bb b6bf ebc5 44bf
00000370: 797d b8be 9f11 0d3f f918 9bbf 2525 1bbf
00000380: 163d 223f fccf b93f c223 e23d f255 c2bf
00000390: b5e7 f43e e829 5dbf 77bb c13d 0def e03f
000003a0: 8e9f 62c0 3612 7bbf 06f3 13bf efb3 0640
000003b0: 45a6 b9be ded9 8e3e a49d e03e 3876 eb3d
000003c0: c17a 51c0 2803 46be e2b2 debe f051 873f
000003d0: 7966 95bf 0c0f b9bf 2ac6 503d d685 f1bd
000003e0: 3b81 1ebf 3384 c23f 9ded 98bf af62 293e
000003f0: dc19 ab3e bdb3 21bf 12a0 f83e dcb6 a83e

rnn.bias_ih_l0 f4 [32]
0.2640959 -0.06369803 -0.17634831 -0.5219633 -1.3843461 -0.5178956 0.88089144 -1.0815114
-0.4410103 0.5808419 0.98761076 -0.39570773 -0.2104326 1.0915536 0.3735932 0.707141
0.48571166 0.038865227 -0.9854384 -0.64001274 -0.48743314 -0.5820119 0.7310399 -0.40076843
1.3373775 -0.6882116 0.40184823 1.1858512 0.7372724 0.43850774 0.013248507 -0.43816942
00000000: 9437 873e 1d74 82bd a794 34be 639f 05bf
00000010: 4132 b1bf ce94 04bf 1a82 613f f76e 8abf
00000020: 1acc e1be 0eb2 143f 0fd4 7c3f 349a cabe
00000030: a57b 57be 07b8 8b3f 9c47 bf3e 3107 353f
00000040: 33af f83e 2531 1f3d b145 7cbf e0d7 23bf
00000050: d690 f9be bbfe 14bf 6e25 3b3f 8531 cdbe
00000060: 302f ab3f a32e 30bf 0dbf cd3e f9c9 973f
00000070: e2bd 3c3f 1684 e03e 4410 593c be57 e0be

rnn.bias_hh_l0 f4 [32]
0.2499381 0.12594634 -0.3885086 -0.32481635 -1.1403798 -0.91611767 0.8613502 -1.0623955
-0.47739094 0.23514464 0.84908926 -0.099163055 -0.39302582 1.2641234 0.45777732 0.60268945
0.8417192 -0.1726563 -0.6617561 -0.73469985 -0.3363771 -0.84030753 0.39879718 0.2757602
1.4940186 -0.8972247 -0.048984695 1.2475183 0.83892405 0.32456517 0.11831636 -0.20222898
00000000: c6ef 7f3e 14f8 003e 99ea c6be 544e a6be
00000010: f7f7 91bf b086 6abf 7281 5c3f 93fc 87bf
00000020: 966c f4be c2c9 703e ea5d 593f 0016 cbbd
00000030: ae3a c9be ccce a13f ca61 ea3e db49 1a3f
00000040: e97a 573f d0cc 30be d968 29bf 4a15 3cbf
00000050: 9f39 acbe 651e 57bf 252f cc3e 7130 8d3e
00000060: 003c bf3f 85b0 65bf 2da4 48bd aeae 9f3f
00000070: bac3 563f 682d a63e d94f f23d 1d15 4fbe

rnn.weight_ih_l0_reverse f4 [32, 8]
-0.36894602 -0.13422565 -0.5872545 0.19808634 -0.000599748 -0.34262133 -0.025267052 -0.028617494
-0.17581275 0.79395306 -0.5547491 -0.24538013 -1.0991498 0.48161218 -0.32437792 -1.2643099
-0.09281901 0.3795918 0.36344057 -0.23072991 -0.4709073 0.57875776 -0.18453951 -0.16064632
-0.233213 0.32157016 -0.13622722 -0.7191585 -0.7334118 0.92414063 -0.022426333 -0.6861631
1.4092102 -0.39781895 -0.7519178 -0.15733194 1.2331697 -0.8808731 0.051618572 -0.333783
-0.9712081 0.97360027 -0.5209178 -0.68867093 0.19376291 -0.39935598 -0.10522902 0.50244385
-0.5689526 -0.21812703 -0.28404522 0.32958323 -1.6300718 -0.21334505 -0.07642954 -0.18930815
0.91248214 0.8275316 0.3041244 -0.2885064 2.3637981 0.48838323 -0.760219 0.031684097
-0.5833285 0.5709215 -0.17316572 -0.08746794 0.21005607 0.55297315 0.66554064 0.19624856
0.07615395 0.0839138 0.341301 0.33019784 -0.06581223 0.5943027 -0.17013301 0.5393616
-0.39084452 -0.112234645 0.009850632 -0.27619693 0.00642303 1.1311637 -0.23101407 0.26036376
-0.05782875 1.2271199 0.20967686 -0.27283743 1.9056592 0.43031847 0.9935227 -0.9504987
-0.32821453 2.0744135 -1.2411646 0.00910153 -0.701737 -0.1252867 1.3262115 -0.09136607
0.15287325 -0.091323026 -0.7647715 -0.21981393 -0.3627836 -0.47274378 -0.44674587 -0.3839882
-0.2247717 -0.004925508 -1.285326 -0.4004853 -2.8672667 -1.940657 0.4417038 -0.1616794
0.29370567 0.32863867 0.31564307 -0.6213923 0.31433746 -0.49782562 0.16414541 -0.8872425
0.50800157 0.017280668 0.1848536 -0.30012706 0.31033546 0.07808119 0.33425793 -0.459199
-0.5251837 -0.08167282 -0.8108718 0.25759277 -0.78581905 0.7757908 -1.4629768 0.24109295
1.0611197 0.28292397 0.28900528 -1.3420631 -0.2163854 -0.9248439 0.08949224 -0.38138956
0.12142292 -0.6805641 -0.8064214 0.6201548 -0.7390833 0.57551515 -0.19181508 0.3689007
0.07132666 -0.38671434 -0.2888766 0.5507327 -0.53939676 -0.012758365 -0.33350226 0.56919014
-0.108464725 0.16265272 0.6815031 2.007154 -0.88300616 -0.31291553 0.824433 2.2028174
-0.003166802 0.13586213 -0.18602759 0.47888806 -0.35572472 0.23046654 -0.25174108 0.52722543
0.2701153 -0.6779701 0.07193063 -0.29205224 -1.3112065 -0.21145837 0.3092432 -0.41842878
0.2644632 -0.49903473 -0.64462495 0.17261304 -1.0870508 0.39108554 -0.24695854 -0.0074944124
-0.006437762 -0.5105372 0.41071028 -0.11387802 -0.0637918 -0.22569415 0.18364513 0.28079787
0.19856237 0.4597214 0.94481903 -0.053196236 0.40109143 -0.39221525 -0.3706231 -0.31532204
-0.8273993 0.7976338 -0.087870136 -0.93043363 -0.03864155 0.50103617 1.9502962 -0.23160781
0.17421098 -0.09491187 0.38145208 -0.37176746 1.0839517 0.107076585 -0.11676668 -0.10326967
0.48617527 0.62461716 -0.07199906 0.23686299 1.0334923 0.9830518 -0.51387644 0.8975653
-0.28681296 0.12933241 0.17134382 0.3559395 -0.6323793 -0.04732161 0.38479626 0.5066786
0.28771234 0.23876677 -0.25950146 -0.2142791 0.231998 -0.27602938 -0.19984089 -0.3078784
00000000: 7ee6 bcbe 7372 09be 5056 16bf 25d7 4a3e
00000010: 6838 1dba 106c afbe d9fc cebc 3c6f eabc
00000020: 4208 34be 8240 4b3f 0904 0ebf ee44 7bbe
00000030: f1b0 8cbf df95 f63e dd14 a6be e8d4 a1bf
00000040: e517 bebd db59 c23e e214 ba3e 7644 6cbe
00000050: c31a f1be 7829 143f edf7 3cbe 7880 24be
00000060: 64cf 6ebe d8a4 a43e 267f 0bbe c51a 38bf
00000070: e0c0 3bbf 7b94 6c3f 6eb7 b7bc 63a8 2fbf
00000080: 0061 b43f edae cbbe af7d 40bf a01b 21be
00000090: 81d8 9d3f e680 61bf ff6d 533d 9be5 aabe
000000a0: 18a1 78bf de3d 793f de5a 05bf bd4c 30bf
000000b0: c969 463e 6378 ccbe 5082 d7bd 29a0 003f
000000c0: e1a6 11bf b15c 5fbe 606e 91be 22bf a83e
000000d0: 31a6 d0bf 2077 5abe 1787 9cbd ffd9 41be
000000e0: 6e98 693f 1cd9 533f 31b6 9b3e 1cb7 93be
000000f0: 7848 1740 5e0d fa3e b69d 42bf 2fc7 013d
00000100: 0455 15bf e927 123f 5b52 31be 6422 b3bd
00000110: f018 573e a68f 0d3f df60 2a3f 62f5 483e
00000120: 9af6 9b3d 00db ab3d 01bf ae3e b10f a93e
00000130: 90c8 86bd 3924 183f 5937 2ebe 9a13 0a3f
00000140: c61c c8be 47db e5bd 8c64 213c af69 8dbe
00000150: 4878 d23b f9c9 903f f48e 6cbe 664e 853e
00000160: d7dd 6cbd 4412 9d3f 88b5 563e 59b1 8bbe
00000170: a4ec f33f b452 dc3e 8157 7e3f e253 73bf
00000180: bc0b a8be 31c3 0440 7bde 9ebf 951e 153c
00000190: 09a5 33bf 284b 00be 4cc1 a93f 221e bbbd
000001a0: ce8a 1c3e 9107 bbbd 11c8 43bf e716 61be
000001b0: c6be b9be 790b f2be e0bb e4be 1a9a c4be
000001c0: 8d2a 66be 2866 a1bb 9085 a4bf 690c cdbe
000001d0: 4c81 37c0 7367 f8bf 0027 e23e 498f 25be
000001e0: 9760 963e 5443 a83e f89b a13e 9113 1fbf
000001f0: d7f0 a03e 00e3 febe bc15 283e 5322 63bf
00000200: 640c 023f 3090 8d3c 434a 3d3e 41aa 99be
00000210: 4ae4 9e3e 08e9 9f3d db23 ab3e 221c ebbe
00000220: 7072 06bf 1444 a7bd 4b95 4fbf 33e3 833e
00000230: 702b 49bf 3a9a 463f d342 bbbf 12e1 763e
00000240: c5d2 873f 69db 903e 80f8 933e b9c8 abbf
00000250: 2294 5dbe 92c2 6cbf b547 b73d 7e45 c3be
00000260: 94ac f83d 7339 2ebf a271 4ebf 77c2 1e3f
00000270: 9034 3dbf f654 133f 2c6b 44be 8de0 bc3e
00000280: b613 923d 6cff c5be a2e7 93be d1fc 0c3f
00000290: e815 0abf 7608 51bc cfc0 aabe 72b6 113f
000002a0: c122 debd 6f8e 263e fd76 2e3f 3675 0040
000002b0: b10c 62bf 7736 a0be 0b0e 533f f6fa 0c40
000002c0: 1f8a 4fbb 711f 0b3e 047e 3ebe d130 f53e
000002d0: 8d21 b6be 6cff 6b3e 35e4 80be 3ff8 063f
000002e0: 8d4c 8a3e 738f 2dbf 5e50 933d df87 95be
000002f0: 9dd5 a7bf 8b88 58be 2055 9e3e 4c3c d6be
00000300: b867 873e 7b81 ffbe 2406 25bf 79c1 303e
00000310: 7b24 8bbf 5d3c c83e b3e2 7cbe b093 f5bb
00000320: ddf3 d2bb 91b2 02bf 9e48 d23e e138 e9bd
00000330: 46a5 82bd 5e1c 67be 780d 3c3e bdc4 8f3e
00000340: ef53 4b3e 9a60 eb3e a9df 713f 4ce4 59bd
00000350: db5b cd3e 70d0 c8be 50c2 bdbe e471 a1be
00000360: 71d0 53bf bb31 4c3f 42f5 b3bd e630 6ebf
00000370: 9a46 1ebd e843 003f 4ea3 f93f 992a 6dbe
00000380: 5d64 323e 2861 c2bd b04d c33e 4e58 bebe
00000390: eebe 8a3f f84a db3d 5e23 efbd 0c7f d3bd
000003a0: f7eb f83e e9e6 1f3f 3e74 93bd 368c 723e
000003b0: 7a49 843f 48a9 7b3f 688d 03bf d7c6 653f
000003c0: 26d9 92be b76f 043e c174 2f3e b43d b63e
000003d0: 9ce3 21bf 4ed4 41bd 0404 c53e b0b5 013f
000003e0: 084f 933e 477f 743e 60dd 84be fb6b 5bbe
000003f0: e290 6d3e b953 8dbe 17a3 4cbe 3da2 9dbe

rnn.weight_hh_l0_reverse f4 [32, 8]
-0.6795211 1.7854569 -0.84411067 1.3307018 0.8917391 -0.1454264 2.0400796 -1.0818399
-0.040216655 0.4628289 0.030841941 -0.17764199 -3.1603632 -1.5431552 -0.021259189 0.79921097
1.5933663 -3.0716643 0.37630355 -1.7532643 -0.494015 -1.0508732 0.8987094 0.21703054
1.3135623 0.82013863 -0.6901557 2.0214455 -0.54390913 -2.68365 2.5010087 -1.2712626
-4.5501614 1.9184774 -0.22731896 1.1516334 1.7926494 6.3258495 2.8715525 0.6626778
0.08307404 -0.27936324 -0.36419195 -0.17438914 0.576546 0.9033093 1.7434846 0.15449609
-0.22807825 0.6663201 1.6345375 0.5499646 0.41073567 -1.0952224 -3.1697602 0.39659825
-0.48867932 -2.559621 -2.4405277 0.033173393 0.2012384 1.0638908 -3.6162157 4.0898714
-1.6333658 -0.8851185 -0.6667135 1.7790064 1.477204 0.14155586 1.8865618 -2.4081814
-0.5077856 2.0761533 -2.8526897 0.97266805 0.28598458 -0.121335655 0.59324664 -1.4963427
-0.8780325 -0.9374795 -0.66174656 0.005735567 2.003673 -1.8290102 1.865719 0.40194243
0.72285426 0.17993109 -0.90175986 0.65251577 0.56432956 1.5737579 -1.7385981 -0.79291093
2.2259924 -0.15070467 -0.30864173 -0.6290487 -0.031353988 4.2396507 -6.2449994 2.5493612
-0.7052377 0.60544896 0.44920948 0.5025252 -1.4157112 -0.43201265 -0.44007942 -0.08635037
-1.0191089 0.954996 -1.4443809 1.2768458 1.8049947 3.5659866 -4.255736 -0.40917307
-3.5087771 -0.09401663 -1.5073438 -0.10104564 1.9595777 1.9547919 1.9885236 -0.14744602
0.53337705 -0.9247732 0.6954523 -1.0211515 -0.16214779 0.821904 -2.2259998 0.017890252
-0.12759022 -0.72885925 -0.3990401 -0.12865597 -2.626733 -0.98481464 0.1752806 0.5062152
-0.026507273 0.6691186 0.10057598 -1.4295439 2.3761508 -0.013553662 -1.3242108 0.75852686
0.8174167 2.4617233 -0.5626155 -0.72299564 -1.9995116 0.77832305 2.385235 -1.8694637
0.47198537 0.48530748 1.6947532 0.53966475 0.25523686 -0.9476209 0.71497554 1.0208538
-0.04624659 0.4322032 -1.9618716 -0.8209668 -0.88613987 -0.65032893 -0.14501342 2.0837214
-2.2053246 0.37353265 0.9822508 0.75210726 0.63066256 -3.8164802 -1.1761595 -0.59500533
2.1379015 -1.6317089 -2.276248 -4.1189594 -1.4579258 2.0007281 -0.82297564 0.49748665
-1.8678079 -0.8093672 -0.59273255 0.13199839 0.5458118 1.313588 -0.71088207 2.6411
2.1610157 1.0774671 -0.89325595 -0.3740172 -2.9260106 -1.4433964 -0.7497626 0.031413067
1.5943036 0.20232964 -0.15128827 0.10013281 -0.5326547 -1.6174306 -0.9031322 2.054132
1.6947803 0.8208616 -0.44513565 0.44876638 -0.4595 2.129938 1.4411863 -1.6371806
-0.1906897 -0.25704917 -1.3805974 0.46139285 -0.8504928 -0.17873237 -1.6886684 0.07591359
-0.044663765 -0.40103978 1.3646919 -0.060593434 -4.4859734 -0.12503251 0.8210614 -0.731231
-0.30989134 -1.2827423 -1.1393199 -1.4767679 -1.991368 -0.42037064 -1.6375318 -2.3551908
0.5104834 -2.5518942 -1.5005232 1.0952102 -0.52847856 -0.85409385 -2.6449652 -0.7301784
00000000: 18f5 2dbf da89 e43f a317 58bf 7054 aa3f
00000010: 0349 643f a8ea 14be aa90 0240 bb79 8abf
00000020: 38ba 24bd e9f7 ec3e 3da8 fc3c c8e7 35be
00000030: 6443 4ac0 1c86 c5bf c027 aebc 1799 4c3f
00000040: 6df3 cb3f 2696 44c0 dcaa c03e f76a e0bf
00000050: 89ef fcbe 0383 86bf d211 663f 413d 5e3e
00000060: cf22 a83f 9bf4 513f 0bae 30bf 5d5f 0140
00000070: a13d 0bbf ecc0 2bc0 8710 2040 bcb8 a2bf
00000080: ec9a 91c0 ab90 f53f 4dc6 68be b968 933f
00000090: 8975 e53f 5c6d ca40 84c7 3740 41a5 293f
000000a0: b922 aa3d b308 8fbe 5e77 babe 1193 32be
000000b0: 8598 133f 473f 673f 812a df3f 3934 1e3e
000000c0: 588d 69be f493 2a3f 8638 d13f 7bca 0c3f
000000d0: f24b d23e 3f30 8cbf 5add 4ac0 ed0e cb3e
000000e0: 2d34 fabe d5d0 23c0 9b31 1cc0 d3e0 073d
000000f0: 7011 4e3e 932d 883f 1470 67c0 3ae0 8240
00000100: 2112 d1bf 2097 62bf bcad 2abf 7bb6 e33f
00000110: 0515 bd3f 05f4 103e db7a f13f a51f 1ac0
00000120: 3dfe 01bf b2df 0440 7892 36c0 c600 793f
00000130: 926c 923e d47e f8bd 03df 173f 2888 bfbf
00000140: bdc6 60bf a8fe 6fbf 3968 29bf 6cf1 bb3b
00000150: 2e3c 0040 021d eabf e1cf ee3f 66cb cd3e
00000160: fa0c 393f db3f 383e bcd9 66bf 460b 273f
00000170: e777 103f e670 c93f 628a debf 36fc 4abf
00000180: a976 0e40 5352 1abe 4a06 9ebe 5609 21bf
00000190: 0a6d 00bd 38ab 8740 09d7 c7c0 bc28 2340
000001a0: 758a 34bf b4fe 1a3f c9fe e53e 7ea5 003f
000001b0: 0636 b5bf c330 ddbe 1752 e1be 76d8 b0bd
000001c0: 2972 82bf 9e7a 743f 79e1 b8bf af6f a33f
000001d0: 110a e73f 2039 6440 fd2e 88c0 227f d1be
000001e0: ce8f 60c0 ca8b c0bd a4f0 c0bf 04f1 cebd
000001f0: 71d3 fa3f 9f36 fa3f f187 fe3f 17fc 16be
00000200: 668b 083f f0bd 6cbf 2909 323f 18b5 82bf
00000210: 120a 26be 4d68 523f c876 0ec0 948e 923c
00000220: 03a7 02be 8596 3abf fc4e ccbe 64be 03be
00000230: 651c 28c0 d01c 7cbf c27c 333e 5297 013f
00000240: c825 d9bc 5b4b 2b3f c8fa cd3d 4bfb b6bf
00000250: db12 1840 2e10 5ebc bd7f a9bf d12e 423f
00000260: 3942 513f e08c 1d40 9207 10bf 3e16 39bf
00000270: ffef ffbf 2e40 473f b1a7 1840 964a efbf
00000280: 11a8 f13e 397a f83e aced d83f 7827 0a3f
00000290: 68ae 823e 4997 72bf a308 373f 56ab 823f
000002a0: 106d 3dbd bd49 dd3e 9c1e fbbf e12a 52bf
000002b0: 10da 62bf f57b 26bf 667e 14be b15b 0540
000002c0: 0a24 0dc0 ac3f bf3e ca74 7b3f 1a8a 403f
000002d0: 1a73 213f 3641 74c0 658c 96bf 4552 18bf
000002e0: 61d3 0840 d6db d0bf 0cae 11c0 84ce 83c0
000002f0: 509d babf ee0b 0040 88ae 52bf 92b6 fe3e
00000300: 5414 efbf b032 4fbf 52bd 17bf 962a 073e
00000310: 52ba 0b3f a723 a83f 5efc 35bf c807 2940
00000320: 154e 0a40 71ea 893f 6cac 64bf 2f7f bfbe
00000330: c243 3bc0 37c1 b8bf 71f0 3fbf fdaa 003d
00000340: 2412 cc3f 802f 4f3e 50eb 1abe 6e12 cd3d
00000350: 0f5c 08bf f707 cfbf ac33 67bf e676 0340
00000360: 90ee d83f fc23 523f d2e8 e3be b5c4 e53e
00000370: 9643 ebbe e750 0840 cb78 b83f 228f d1bf
00000380: 2944 43be f39b 83be 6ab7 b0bf af3b ec3e
00000390: e5b9 59bf 9e05 37be 4926 d8bf 9678 9b3d
000003a0: 5af1 36bd 1655 cdbe 39ae ae3f d230 78bd
000003b0: 188d 8fc0 8608 00be 1431 523f f431 3bbf
000003c0: 14aa 9ebe e630 a4bf 3cd5 91bf bb06 bdbf
000003d0: 26e5 febf d23a d7be a49a d1bf 72bb 16c0
000003e0: 0aaf 023f 3c52 23c0 2511 c0bf d92f 8c3f
000003f0: 5f4a 07bf e5a5 5abf 1c47 29c0 f9ec 3abf

rnn.bias_ih_l0_reverse f4 [32]
0.036831066 1.1118681 0.33224675 -0.2816758 1.0316241 -1.1691082 0.2277608 0.45583206
-0.06494598 0.62457263 0.7716333 -0.0038511297 -0.27476737 -0.2550993 0.583338 0.058610696
-0.52277684 0.2165973 -0.67750275 0.77166575 -0.91833586 0.10277712 0.19333623 -0.047415204
0.5000113 0.02209808 0.5327963 0.060460158 -0.32414988 0.42753676 -0.5503022 0.3895165
00000000: 2cdc 163d b251 8e3f 3f1c aa3e cf37 90be
00000010: 420c 843f 56a5 95bf 213a 693e d262 e93e
00000020: 6602 85bd fee3 1f3f c389 453f 3c63 7cbb
00000030: 4fae 8cbe 609c 82be a455 153f c511 703d
00000040: b4d4 05bf afcb 5d3e d270 2dbf e38b 453f
00000050: 0f18 6bbf d07c d23d eff9 453e 7236 42bd
00000060: be00 003f 0807 b53c 5765 083f 12a5 773d
00000070: f9f6 a5be 19e6 da3e 9be0 0cbf b56e c73e

rnn.bias_hh_l0_reverse f4 [32]
0.4053729 1.0983027 0.54659134 -0.36201447 1.1066337 -0.5835022 0.114457995 0.051369477
0.015759446 0.5764874 0.6946892 0.06710235 -0.4288859 -0.8334488 0.61037326 -0.4142663
-0.41027915 0.5177031 -0.99786615 1.2440029 -0.9542526 -0.061769586 0.26595527 -0.015778422
0.81845826 0.22091773 0.96291715 0.1569135 0.24174531 0.1317553 -0.25133443 0.2313762
00000000: 098d cf3e 2f95 8c3f 69ed 0b3f f659 b9be
00000010: 2ca6 8d3f 6660 15bf f468 ea3d cd68 523d
00000020: f419 813c ae94 133f 27d7 313f f56c 893d
00000030: ef96 dbbe e75c 55bf 6c41 1c3f b61a d4be
00000040: 1c10 d2be 3188 043f 2874 7fbf 7d3b 9f3f
00000050: e649 74bf 1b02 7dbd 4a2b 883e c041 81bc
00000060: 7b86 513f 4238 623e bd81 763f efad 203e
00000070: 158c 773e ddea 063e e8ae 80be e2ed 6c3e

rnn.weight_ih_l1 f4 [32, 16]
-1.156717 -0.4458632 -0.50756675 0.23295462 0.30319503 -0.7383684 -0.32653478 0.67798775
0.28080693 -1.4244227 1.5351914 -1.0227057 0.2886044 0.00048024952 0.43257016 -0.82709605
-1.199028 -0.71106684 1.0563564 0.8472157 0.8066119 0.772871 -1.0984063 -0.06231485
-0.16980197 -1.4906809 0.3073036 -0.7561111 -0.66963094 -0.9129074 -1.038461 3.7285655
-1.57722 1.1219347 -0.17120177 -0.12938918 0.70433027 1.0973618 0.25868714 2.3114119
-3.3561666 -0.12793319 -0.6339266 -0.11000504 -1.1168791 0.9738308 1.4565417 -0.3841259
-0.79280776 0.9656955 -0.8639346 -3.8515818 1.4348869 2.2780943 0.036680363 0.67647505
-0.35509336 -1.477423 -0.40925363 -0.06799822 2.7307913 0.21634556 1.1512691 -1.6747005
-0.1956554 1.6774783 -0.59105 -0.15321621 0.30789042 0.46670482 0.1957715 -0.40565237
1.0129975 -0.6206736 -0.29302275 0.46530065 -0.2831878 0.7758367 0.2494872 -0.9829786
1.0053228 0.12234531 -0.84468246 -0.037239585 -0.599401 -0.689221 -0.31696066 0.4049135
-1.4432694 1.2800797 -0.9895027 0.9461985 -3.7459455 0.6199069 1.0856793 -0.5248089
0.0957208 -0.9418481 -0.3376195 0.36648688 -0.053667463 0.58933103 0.21997191 1.3088218
1.7103685 0.084945686 -0.22377916 -0.5198371 -1.0638068 -0.35022804 -1.9723115 -0.21268028
-0.91778874 0.39056975 -0.016960014 0.23052625 0.2210281 -0.4214033 0.16591991 -0.3640656
-2.7627788 -1.3497765 -0.18196593 -0.068380274 0.25801358 -0.7808259 0.9065808 -0.985223
-0.26510867 2.037357 0.4239501 -0.5622937 0.08794934 -0.73152435 0.5322429 0.6250105
-1.2608947 1.458295 1.4261609 -0.47919753 -0.050424676 1.3120534 0.3342516 0.7693475
-0.029861342 0.29893032 1.2456764 0.10904094 0.30757076 0.2711007 -0.6739521 -0.18384497
0.98568267 1.3207418 -0.003126611 1.188882 0.55462676 -1.2617058 -1.430719 1.7085637
-0.45340446 1.1092556 0.31659374 1.3292918 0.41240788 0.17278475 0.24241282 0.584498
0.7670957 0.1716262 0.39908057 -2.7638361 2.0026462 -1.922057 -0.47892696 0.07358818
0.32636958 -1.1290319 -0.10273405 -0.02194736 -0.00317787 -0.23270407 0.79987544 1.204212
-1.2648029 -0.40676206 0.4776804 -0.21028975 -2.3208382 -1.0719734 0.4641757 0.59641594
-0.33577916 -0.37649995 -1.2458961 -0.4595559 -0.5355649 0.5019546 -0.046354458 -0.2144864
0.41161007 1.0293874 0.6884511 1.6912534 0.13575351 0.99667203 -1.3162569 -0.4407924
0.718291 -0.37797374 -0.6932794 -0.26029712 -0.83088577 -0.9735508 -1.0461724 0.92809993
-0.8400428 0.9280801 -0.98211646 0.65027744 0.7756109 0.6182134 0.54742557 -0.4740451
-0.019975362 -0.6850237 0.119095065 0.062493317 0.258082 0.26750463 0.9008776 0.49302515
1.1987808 0.5129756 0.11263465 -0.008966095 -0.5630461 -0.7379676 0.096974425 0.91678166
-1.5216563 0.9039229 0.35144046 0.34122387 1.0012786 -1.1056223 0.97407806 1.1264571
-0.96336776 -2.6622577 1.6759582 -1.1894938 -0.30858615 0.6700176 0.7528566 0.014709799
00000000: 4d0f 94bf 2e48 e4be e5ef 01bf a88b 6e3e
00000010: 613c 9b3e b605 3dbf 912f a7be 9b90 2d3f
00000020: edc5 8f3e 7c53 b6bf 2781 c43f 05e8 82bf
00000030: f5c3 933e 00ca fb39 d679 dd3e 91bc 53bf
00000040: c079 99bf 7a08 36bf b036 873f 21e3 583f
00000050: 1e7e 4e3f e0da 453f 9498 8cbf db3d 7fbd
00000060: 91e0 2dbe a2ce bebf e656 9d3e 7f90 41bf
00000070: ef6c 2bbf 4db4 69bf 4aec 84bf d1a0 6e40
00000080: 58e2 c9bf 8e9b 8f3f 844f 2fbe 997e 04be
00000090: fd4e 343f 5a76 8c3f a472 843e 2cee 1340
000000a0: 6fcb 56c0 eb00 03be 0349 22bf 534a e1bd
000000b0: e5f5 8ebf fa4c 793f f56f ba3f 26ac c4be
000000c0: 73f5 4abf d237 773f d12a 5dbf 5180 76c0
000000d0: 60aa b73f 4ccc 1140 263e 163d 782d 2d3f
000000e0: ccce b5be 321c bdbf b189 d1be a742 8bbd
000000f0: 49c5 2e40 b189 5d3e c95c 933f 965c d6bf
00000100: e459 48be 9cb7 d63f 0e4f 17bf b6e4 1cbe
00000110: d0a3 9d3e eff3 ee3e 5378 483e abb1 cfbe
00000120: e7a9 813f 77e4 1ebf 1407 96be e33b ee3e
00000130: fefd 90be 3c9d 463f 9379 7f3e 7ca4 7bbf
00000140: 6bae 803f 2e90 fa3d 1c3d 58bf 8988 18bd
00000150: 5872 19bf ca70 30bf ab48 a2be d350 cf3e
00000160: 0dbd b8bf a7d9 a33f 0d50 7dbf 113a 723f
00000170: 92bd 6fc0 38b2 1e3f 8af7 8a3f e059 06bf
00000180: 4409 c43d f51c 71bf 77dc acbe 2ba4 bb3e
00000190: 6ad2 5bbd 66de 163f 5140 613e 7987 a73f
000001a0: 5bed da3f 01f8 ad3d 5d26 65be 0b14 05bf
000001b0: d22a 88bf 1751 b3be b474 fcbf dcc8 59be
000001c0: 34f4 6abf c2f8 c73e baef 8abc 130f 6c3e
000001d0: 3155 623e 2cc2 d7be e9e6 293e ce66 babe
000001e0: 5ed1 30c0 7ac5 acbf 4755 3abe f50a 8cbd
000001f0: 5b1a 843e 35e4 47bf ae15 683f 9337 7cbf
00000200: 53bc 87be 0f64 0240 fd0f d93e 7bf2 0fbf
00000210: c91e b43d 2e45 3bbf 1241 083f b000 203f
00000220: ff64 a1bf 69a9 ba3f 718c b63f 6159 f5be
00000230: 1b8a 4ebd 5ef1 a73f 0723 ab3e f5f3 443f
00000240: c69f f4bc 650d 993e 5372 9f3f db50 df3d
00000250: ea79 9d3e b6cd 8a3e 2088 2cbf db41 3cbe
00000260: b355 7c3f 110e a93f d4e7 4cbb 492d 983f
00000270: 05fc 0d3f 937f a1bf cd21 b7bf 37b2 da3f
00000280: a124 e8be 16fc 8d3f 9318 a23e 3c26 aa3f
00000290: 2027 d33e 7cee 303e 113b 783e a9a1 153f
000002a0: 6260 443f c7be 2f3e 4a54 cc3e b1e2 30c0
000002b0: 5b2b 0040 f705 f6bf ea35 f5be 66b5 963d
000002c0: ea19 a73e 1e84 90bf 3b66 d2bd f3ca b3bc
000002d0: d043 50bb fa49 6ebe a3c4 4c3f 9e23 9a3f
000002e0: 10e5 a1bf 1e43 d0be 8692 f43e 3256 57be
000002f0: 9d88 14c0 6d36 89bf 70a8 ed3e b7ae 183f
00000300: 3feb abbe 9ac4 c0be 8679 9fbf e94a ebbe
00000310: c81a 09bf 1980 003f 2cde 3dbd 53a2 5bbe
00000320: 8ebe d23e f7c2 833f 553e 303f fe7a d83f
00000330: f802 0b3e e625 7f3f 1b7b a8bf 8baf e1be
00000340: ebe1 373f c685 c1be c27a 31bf aa45 85be
00000350: eeb4 54bf a03a 79bf fae8 85bf f597 6d3f
00000360: 0c0d 57bf a896 6d3f fc6b 7bbf 9578 263f
00000370: 708e 463f 3c43 1e3f 1524 0c3f 0ab6 f2be
00000380: 5fa3 a3bc b75d 2fbf 1de8 f33d fef8 7f3d
00000390: 5323 843e 5ef6 883e ea9f 663f cb6d fc3e
000003a0: a671 993f 5e52 033f ffac e63d 87e6 12bc
000003b0: ca23 10bf 72eb 3cbf 879a c63d 34b2 6a3f
000003c0: a2c5 c2bf 7e67 673f 01f0 b33e e5b4 ae3e
000003d0: e629 803f 0885 8dbf 2e5d 793f bf2f 903f
000003e0: 459f 76bf 6e62 2ac0 cc85 d63f 5541 98bf
000003f0: 01ff 9dbe 4686 2b3f 36bb 403f 5e01 713c

rnn.weight_hh_l1 f4 [32, 8]
0.20092422 -2.0440242 1.4637321 -0.03693 0.7470299 0.31541565 -0.486492 0.46168196
0.13106018 0.1944569 -0.37508377 0.59083635 2.411716 0.004633536 1.1007284 0.13090947
6.3593416 -2.4985287 -0.66378856 1.878241 -1.5569133 -1.621785 1.8328898 -0.23212133
-3.0974998 0.88146484 -1.542122 -0.24809377 0.84021765 0.17922467 0.9438836 -2.4938307
0.5360514 1.5887692 -1.1914247 0.65487665 1.5990739 -0.067150265 0.35394165 -0.1627146
-0.58496827 0.06589761 -0.5307451 -0.8844148 0.28509647 0.43091774 0.7582749 -0.090972
-0.397205 0.35790184 -0.079948954 0.3311003 0.7168861 -0.23550263 -0.6366462 -0.7083577
0.8965131 -2.4752104 0.8942853 -0.12282832 1.6595675 0.9798522 -2.549918 0.2772088
-1.4004607 -3.170866 -1.9070203 0.25443816 -0.03166261 0.6392772 0.65280706 1.1482743
1.968378 -0.19523302 0.8451397 -0.18189366 1.8216326 -0.03346465 -0.88303864 1.5557563
0.52437985 -1.2719564 1.3622421 1.4900191 0.40273643 0.3982157 0.59453815 1.69398
-0.8854296 -0.56915045 0.20185642 -1.2287366 -1.0263456 1.8797281 0.9608476 1.5199564
3.4790463 1.9731064 -0.4985388 0.25708097 2.6429572 0.5946705 1.4256995 2.4337695
-0.5525601 0.5396162 -0.34012577 -0.55599546 -0.18441331 0.31111914 0.07742477 0.016978659
-0.23675726 0.34607002 0.61071754 0.784819 1.5153841 0.8835327 0.86451495 0.28496298
-0.34968427 -0.81009257 1.2563608 0.2469943 2.5414343 -0.35771516 0.29916212 1.1415898
-0.38540512 -1.2806245 1.4244153 -0.7231529 0.9503901 1.2693218 -0.20452593 2.1923237
0.544245 0.6535758 -0.59559053 -0.40785724 0.24978572 -0.073073596 -0.27621287 0.017823946
1.079627 -1.5148413 0.9350885 0.74814576 0.6399841 -0.614681 1.2339411 1.2822032
1.3991661 0.392163 0.5321332 1.6551819 -0.4096549 -1.1176993 -1.0273721 -0.77952355
-0.7406821 -1.7149998 -0.37516093 -0.042790856 -0.3406653 0.2964584 0.70338273 -0.72579503
0.43864027 0.5020625 -0.46172968 -1.1831211 -0.42122442 0.21294698 0.2564206 -0.08793635
-1.0171876 0.44676125 0.26188788 0.5534648 1.8721806 0.48152208 -1.4423406 -0.49634957
0.4187385 0.9650292 -0.7508856 -0.9574382 0.46215945 2.1447012 1.091407 1.7295624
0.8594141 -0.2397193 0.80435413 -0.3569686 -0.32730782 2.181725 0.07419139 1.2161355
1.8048807 -0.044984452 0.44593948 -0.24533612 0.30690315 0.9597629 0.39840952 0.6337451
-1.2160811 -1.7278801 -0.27770838 2.1177669 1.1321661 -2.1621332 -0.41919598 -0.4412227
0.86371577 0.14849073 0.500818 0.38952538 0.52932346 0.8672631 0.14330874 1.0361727
-1.4666584 -0.45403484 0.34662408 -0.29262885 -1.1791769 0.54270923 0.21268417 -1.8600005
-2.4982646 1.7404966 0.25180858 0.39401314 1.2692761 0.4219535 -1.2290868 -0.60811794
-0.23694521 -0.5178186 0.51932627 -0.23579404 0.015124796 2.698229 0.8692275 0.8340487
-1.305659 -0.22036286 0.5862446 -0.12873016 2.703136 0.8601371 1.2148743 1.4111978
00000000: 14bf 4d3e 4bd1 02c0 935b bb3f e943 17bd
00000010: 5a3d 3f3f 297e a13e 7b15 f9be 9461 ec3e
00000020: a434 063e b61f 473e fb0a c0be 0d41 173f
00000030: 8e59 1a40 ebd4 973b abe4 8c3f 220d 063e
00000040: ba7f cb40 e5e7 1fc0 0cee 29bf 336a f03f
00000050: ef48 c7bf a796 cfbf 229c ea3f 37b1 6dbe
00000060: 703d 46c0 aea7 613f 4164 c5bf 4b0c 7ebe
00000070: 8118 573f ac86 373e 5ba2 713f ec9a 1fc0
00000080: aa3a 093f ca5c cb3f 9b80 98bf ffa5 273f
00000090: 74ae cc3f 1486 89bd d737 b53e a89e 26be
000000a0: 7bc0 15bf 53f5 863d e9de 07bf 0269 62bf
000000b0: 2af8 913e 40a1 dc3e 4e1e 423f 874f babd
000000c0: 745e cbbe e93e b73e 47bc a3bd fb85 a93e
000000d0: d985 373f 9a27 71be 3ffb 22bf ee56 35bf
000000e0: e281 653f d969 1ec0 e2ef 643f 6a8d fbbd
000000f0: b56c d43f 98d7 7a3f db31 23c0 50ee 8d3e
00000100: 4c42 b3bf 78ef 4ac0 3e19 f4bf b845 823e
00000110: a7b0 01bd aca7 233f 5d1e 273f a7fa 923f
00000120: cff3 fb3f 2aeb 47be 135b 583f 5542 3abe
00000130: 422b e93f 3b12 09bd d20e 62bf 0623 c73f
00000140: c23d 063f 78cf a2bf f35d ae3f f2b8 be3f
00000150: 7833 ce3e eee2 cb3e a733 183f 56d4 d83f
00000160: 84ab 62bf d8b3 11bf 73b3 4e3e 3e47 9dbf
00000170: 4b5f 83bf ee9a f03f 1cfa 753f ee8d c23f
00000180: b2a8 5e40 c08e fc3f 7a40 ffbe 1ea0 833e
00000190: 3626 2940 533c 183f 527d b63f e1c2 1b40
000001a0: 9474 0dbf 4a24 0a3f f724 aebe b855 0ebf
000001b0: d8d6 3cbe 024b 9f3e e190 9e3d d416 8b3c
000001c0: 7f70 72be 1730 b13e fc57 1c3f e6e9 483f
000001d0: 1bf8 c13f 332f 623f da50 5d3f abe6 913e
000001e0: d109 b3be 3a62 4fbf 6ed0 a03f 13ec 7c3e
000001f0: dca6 2240 7126 b7be c72b 993e 9d1f 923f
00000200: d253 c5be 81eb a3bf 3e53 b63f 8c20 39bf
00000210: c44c 733f 2379 a23f 3f6f 51be 084f 0c40
00000220: a453 0b3f be50 273f 9f78 18bf aad2 d0be
00000230: d4c7 7f3e 9ca7 95bd c66b 8dbe 8603 923c
00000240: 3831 8a3f 52e6 c1bf f661 6f3f 7b86 3f3f
00000250: ffd5 233f bc5b 1dbf c8f1 9d3f 3c1f a43f
00000260: e017 b33f 97c9 c83e e239 083f 00dd d33f
00000270: 49be d1be c510 8fbf ee80 83bf db8e 47bf
00000280: 589d 3dbf 1d85 dbbf 1815 c0be 7745 2fbd
00000290: af6b aebe 65c9 973e e410 343f b4cd 39bf
000002a0: 7595 e03e 2b87 003f d567 ecbe 8370 97bf
000002b0: baaa d7be c60e 5a3e 9049 833e f917 b4bd
000002c0: 3433 82bf e4bd e43e 2b16 863e deaf 0d3f
000002d0: 9da3 ef3f 108a f63e 9e9e b8bf 8821 febe
000002e0: e564 d63e 270c 773f 0a3a 40bf ab1a 75bf
000002f0: 2aa0 ec3e c942 0940 39b3 8b3f 4d62 dd3f
00000300: 9002 5c3f fa78 75be 27ea 4d3f 97c4 b6be
00000310: e494 a7be 62a1 0b40 a8f1 973d 54aa 9b3f
00000320: 5506 e73f 9e41 38bd 2e52 e43e 6439 7bbe
00000330: 6922 9d3e 05b3 753f 55fc cb3e 1e3d 223f
00000340: 8ca8 9bbf 2d2b ddbf cb2f 8ebe 7e89 0740
00000350: d2ea 903f 6460 0ac0 dba0 d6be f1e7 e1be
00000360: 7a1c 5d3f f40d 183e 9c35 003f df6f c73e
00000370: be81 073f f404 5e3f 87bf 123e 4fa1 843f
00000380: 76bb bbbf 4177 e8be b678 b13e 73d3 95be
00000390: 45ef 96bf feee 0a3f e1c9 593e 7f14 eebf
000003a0: 91e3 1fc0 98c8 de3f 0eed 803e 17bc c93e
000003b0: a477 a23f 4a0a d83e b752 9dbf 9ead 1bbf
000003c0: c4a1 72be c38f 04bf 91f2 043f fe73 71be
000003d0: fecd 773c c9af 2c40 b285 5e3f 3784 553f
000003e0: d61f a7bf cda6 61be 2014 163f d7d1 03be
000003f0: 2e00 2d40 f231 5c3f 0081 9b3f 21a2 b43f

rnn.bias_ih_l1 f4 [32]
-0.63798445 0.24361014 1.3516877 0.35000905 -0.07911104 0.55635136 0.15125012 0.54076767
-0.016149763 0.24411172 0.6364953 1.3773507 0.24731939 0.08867413 -0.023319181 -0.37814122
-0.023929268 -0.017053474 0.2773414 -0.32006916 0.55852085 0.45483276 1.1104401 0.32136983
0.33075958 1.1186066 1.243255 0.41866744 -0.34379783 0.51466167 0.8285294 0.32758382
00000000: f352 23bf f074 793e 1a04 ad3f 6334 b33e
00000010: f804 a2bd 0b6d 0e3f 50e1 1a3e c06f 0a3f
00000020: 824c 84bc 6cf8 793e 5bf1 223f 074d b03f
00000030: 4b41 7d3e c89a b53d de07 bfbc ba9b c1be
00000040: 5007 c4bc bab3 8bbc b1ff 8d3e 1be0 a3be
00000050: 39fb 0e3f d7df e83e e722 8e3f 968a a43e
00000060: 5259 a93e 802e 8f3f fb22 9f3f 945b d63e
00000070: 4506 b0be dec0 033f 811a 543f 11b9 a73e

rnn.bias_hh_l1 f4 [32]
-0.5015154 0.5173789 0.8274071 0.31515506 -0.66001636 -0.026592381 0.15203676 0.570418
0.082948506 0.31752157 0.52263564 0.9469374 0.016058264 0.1113355 0.38523245 0.07589344
-0.05481107 -0.42806265 -0.121828735 -0.3019577 0.7111656 0.7683039 0.92934376 0.748349
0.30051935 0.95706457 1.3912009 0.28799677 -0.27406114 0.8117023 0.6867598 0.83527666
00000000: 5063 00bf f272 043f f4d0 533f 015c a13e
00000010: d5f6 28bf 44d8 d9bc 86af 1b3e ea06 123f
00000020: e8e0 a93d 3092 a23e 73cb 053f 7d6a 723f
00000030: 9f8c 833c de03 e43d 303d c53e 056e 9b3d
00000040: 9381 60bd 072b dbbe 5881 f9bd 339a 9abe
00000050: f30e 363f 90af 443f 79e9 6d3f cd93 3f3f
00000060: acdd 993e 2f02 753f df12 b23f 5074 933e
00000070: be51 8cbe b9cb 4f3f 7ecf 2f3f b1d4 553f
